model/Kaggle_Mnist.pt (torch, 437249 bytes, 8 tensors)

conv1.weight f4 [16, 1, 3, 3]
0	0xbec6605d	-0.38745394
1	0xbe81caee	-0.25350136
2	0xbea031ec	-0.31288087
3	0xbeb7a5c6	-0.35868663
4	0xbde62bf1	-0.1123885
5	0xbeb6cdeb	-0.35703978
6	0xbaafcc95	-0.0013412411
7	0xbe3d6fe4	-0.18499714
8	0xbe9d2c48	-0.30697846
9	0xbeb2b77a	-0.34905607
10	0xbad04a3d	-0.0015891265
11	0xbe8d11ed	-0.2755274
12	0xbce36377	-0.02775739
13	0xbd51d641	-0.05122972
14	0xbf01e1b2	-0.5073501
15	0xbe5c4905	-0.2151223
16	0xbebb1c59	-0.36545065
17	0xbe8851d6	-0.26624936
18	0xbe892d39	-0.26792315
19	0xbe89e056	-0.26928967
20	0xbddebe53	-0.10876145
21	0xbd308463	-0.043095004
22	0xbd701064	-0.05860938
23	0xbee485a8	-0.44633222
24	0xbea05c96	-0.31320637
25	0xbd85db99	-0.065360256
26	0xbe01a1e9	-0.1265942
27	0xbf080068	-0.5312562
28	0xbcb8fd1c	-0.02258163
29	0xbec1f357	-0.37880966
30	0xbc610e41	-0.013736309
31	0xbf048421	-0.5176411
32	0xbe484579	-0.19557752
33	0xbe53a15a	-0.2066702
34	0xbcccf061	-0.025016965
35	0xbeeaa408	-0.4582827
36	0xbe06e28b	-0.13172357
37	0xbec32c87	-0.3811991
38	0xbd198422	-0.037479527
39	0xbee83c28	-0.45358396
40	0xbd3ad48b	-0.045612853
41	0xbea4415e	-0.3208112
42	0xbe698cda	-0.22807637
43	0xbe0c291c	-0.13687557
44	0xbf410162	-0.75392735
45	0xbed3a880	-0.41339493
46	0xbc19fcfe	-0.009398697
47	0xbde9064c	-0.11378154
48	0xbece33af	-0.40273806
49	0xbe34b8b8	-0.1764859
50	0xbe84269a	-0.258107
51	0xbc7ff10a	-0.015621433
52	0xbd50fd4c	-0.051022813
53	0xbcf5deda	-0.03001349
54	0xbeb9b7a9	-0.36272934
55	0xbdb4b75e	-0.08824037
56	0xbd01162b	-0.03151528
57	0xbe575574	-0.21028692
58	0xbe7e86bd	-0.24856086
59	0xbeafd4d5	-0.34342065
60	0xbe970ab0	-0.2950034
61	0xbdab09b7	-0.08351462
62	0xbd211a0e	-0.03933149
63	0xbd8bbe38	-0.06823391
64	0xbd6cb466	-0.05778923
65	0xbcd43fbe	-0.0259093
66	0xbdfc916f	-0.12332427
67	0xbe95cacc	-0.29256284
68	0xbe812bcc	-0.25228727
69	0xbd80035e	-0.06250642
70	0xbd903909	-0.070421286
71	0xbd489a41	-0.048975233
72	0xbe1fef91	-0.15618731
73	0xbd3cecd4	-0.046124294
74	0xbec02d14	-0.37534392
75	0xbca41d51	-0.02003351
76	0xbd8561b6	-0.065127775
77	0xbe378707	-0.17922603
78	0xbe826e74	-0.25474894
79	0xbec47ede	-0.38378042
80	0xbed5e353	-0.41774997
81	0xbe7f3637	-0.24923025
82	0xbf229c02	-0.635193
83	0xbf41fcc4	-0.75776315
84	0xbcd886d4	-0.026431479
85	0xbf08e16c	-0.53468966
86	0xbf539280	-0.82645416
87	0xbeaa0714	-0.33208525
88	0xbef83d1f	-0.48484132
89	0xbc85e94c	-0.016346596
90	0xbd7d4095	-0.06182917
91	0xbd4bfd81	-0.049802307
92	0xbd0c6c2a	-0.03428284
93	0xbe839155	-0.25696817
94	0xbc78fe79	-0.01519739
95	0xbdc4b74f	-0.09605276
96	0xbc487e01	-0.012237073
97	0xbee6e6fc	-0.45098102
98	0xbe010afd	-0.12601848
99	0xbdccb560	-0.09995532
100	0x3b0c4e0f	0.0021408831
101	0xbe055ac4	-0.13022906
102	0xbd503db4	-0.050840095
103	0xbd9f7447	-0.0778585
104	0xbd4f3f38	-0.0505974
105	0xbd643845	-0.055717725
106	0xbeab14bc	-0.33414257
107	0xbdb91d0f	-0.090387456
108	0xbdd18e5a	-0.102322295
109	0xbe314b5b	-0.17313902
110	0xbec453ee	-0.38345283
111	0xbd48791e	-0.04894363
112	0xbb02395b	-0.0019870612
113	0xbeca952f	-0.39566943
114	0xbe7d4f5b	-0.24737303
115	0xbe3b5fa7	-0.18298207
116	0xbc489837	-0.012243322
117	0xbd8b326d	-0.06796727
118	0xbbce7110	-0.006300099
119	0xbc762556	-0.01502355
120	0xbde81dd4	-0.11333814
121	0xbe83aaf0	-0.25716352
122	0xbd6c72bb	-0.057726603
123	0xbdc87da4	-0.09789589
124	0xbbc5dc8a	-0.006038253
125	0xbda272fa	-0.07932086
126	0xbea088c2	-0.31354338
127	0xbe4c4aa7	-0.19950353
128	0xbf1de4d7	-0.61677307
129	0xbe6ae4cb	-0.2293884
130	0xbe4b05a1	-0.19826366
131	0xbe92a216	-0.28639287
132	0xbedcaf70	-0.43102598
133	0xbf0bd109	-0.5461584
134	0xbf19101e	-0.5979022
135	0xbd33b529	-0.04387394
136	0xbeb07d66	-0.3447067
137	0xbee9e5ef	-0.45683238
138	0xbd06e4dd	-0.032933105
139	0xbe81eb0e	-0.25374645
140	0xbea724bf	-0.32645223
141	0xbd1e52b7	-0.0386531
142	0xbde0e72f	-0.10981595
143	0xbd72c5d6	-0.059270702

conv1.bias f4 [16]
0	0xbeb18da5	-0.3467838
1	0xbe8bd048	-0.27307343
2	0xbf95ea0e	-1.1712053
3	0xbe5bf4ef	-0.21480154
4	0xbde9e67a	-0.11420913
5	0xbe964793	-0.29351482
6	0xbe6e3322	-0.23261693
7	0xbe241aa5	-0.16025789
8	0xbf743342	-0.95390713
9	0xc03590d5	-2.8369648
10	0xbe2a46df	-0.16628598
11	0xbf12de0b	-0.5737006
12	0xbe070dfb	-0.13188927
13	0xbe594121	-0.21216251
14	0x3dce71d2	0.10080303
15	0xbecb5ae9	-0.39717796

conv2.weight f4 [32, 16, 3, 3]
0	0xbe81ed60	-0.25376415
1	0xbd2fd30e	-0.042925887
2	0x3e004920	0.12527895
3	0xbdc0f1c1	-0.09421111
4	0xbe2fd648	-0.17171586
5	0x3cfc23f6	0.030778866
6	0xbdd721a0	-0.1050446
7	0x3db72d93	0.089442395
8	0x3dcb7485	0.09934334
9	0xbe70447a	-0.23463622
10	0xbe874570	-0.26420164
11	0xbee58f7e	-0.44836038
12	0xbd303eb2	-0.04302854
13	0xbdeaf538	-0.11472553
14	0xbdc8d8db	-0.09806987
15	0xbd150a29	-0.036386643
16	0xbe22cd04	-0.1589852
17	0xbd3b6d2b	-0.045758408
18	0xbdfd0eff	-0.12356376
19	0x3cbdacd1	0.023153694
20	0xbe82c36f	-0.2553973
21	0xbe0b0681	-0.135767
22	0xbdad32ae	-0.08456932
23	0xbeb3ed2d	-0.35141888
24	0x3c75c499	0.015000486
25	0xbed96526	-0.42459983
26	0xbd6debca	-0.058086194
27	0xbe873a18	-0.2641151
28	0x3dc905cd	0.098155595
29	0x3e82328d	0.25429192
30	0xbe7d26c4	-0.24721819
31	0x3d276fee	0.04087823
32	0xbdfdcb76	-0.12392323
33	0xbce171f6	-0.027520161
34	0xbe8de3d3	-0.2771288
35	0xbdd40ee4	-0.10354403
36	0xbb29bd61	-0.0025900232
37	0xbea16f21	-0.31530097
38	0xbe0397b1	-0.12850834
39	0xbe3f2f70	-0.1867044
40	0xbf33b3e2	-0.70196354
41	0xbf90fa03	-1.1326298
42	0xbedbd052	-0.42932373
43	0xbe74e087	-0.23913775
44	0xbf2078da	-0.62684405
45	0xbe972461	-0.29519942
46	0xbdb2b680	-0.08726215
47	0xbd6b2c89	-0.05741552
48	0xbe44293e	-0.19156358
49	0xbd96fa01	-0.07371903
50	0xbe0faf59	-0.14031734
51	0x3daa3215	0.08310334
52	0xbd577be8	-0.0526084
53	0xbcd38790	-0.025821477
54	0xbebf22d8	-0.3733127
55	0xbdb6060d	-0.08887873
56	0xbe1307fd	-0.14358516
57	0xbe03b1a2	-0.1286073
58	0x3e9f586b	0.31122145
59	0xbe7db0de	-0.247745
60	0xbaa8a31f	-0.0012865997
61	0xbe13d939	-0.14438333
62	0xbdf3f550	-0.11912024
63	0xbe48c8c5	-0.19607837
64	0x3c011383	0.007878187
65	0xbeceb25b	-0.4037045
66	0xbce9442f	-0.028474895
67	0x3c81856b	0.015810689
68	0xbd313123	-0.04325975
69	0xb97e70bf	-0.00024265329
70	0xbdc9b583	-0.09849074
71	0xbda80451	-0.08203948
72	0x3c0d4056	0.008621296
73	0xbe8ba3fa	-0.27273542
74	0xbd21535f	-0.03938615
75	0xbda0aa6b	-0.07845005
76	0x3c969a37	0.018384082
77	0xbbbb5b96	-0.005717705
78	0x3c630e72	0.0138584245
79	0x3de7ab85	0.11312012
80	0x3e6d7ae8	0.23191416
81	0xbea70cff	-0.32627103
82	0xbe43fe2e	-0.1913993
83	0xbf89ebbd	-1.0775067
84	0xbf318957	-0.6935019
85	0xbed09b28	-0.40743375
86	0xbeba2a34	-0.36360323
87	0xbdc5a01e	-0.096496806
88	0xbe71ecfb	-0.23625557
89	0xbe44d428	-0.19221556
90	0xbe5de550	-0.21669507
91	0xbdd83a5a	-0.10558005
92	0xbe0bcc03	-0.13652043
93	0xbed6886b	-0.41900954
94	0xbe3731fd	-0.17890163
95	0xb9a21e22	-0.000309215
96	0xba83b1c0	-0.001004748
97	0x3d13e853	0.036110234
98	0x3dc76ea0	0.09737897
99	0xbe42f4b2	-0.19038656
100	0xbe8316c5	-0.2560331
101	0xbd95ee3b	-0.073208295
102	0xbe9153bb	-0.28384194
103	0xbe7a7a0e	-0.24460623
104	0xbe0c324e	-0.13691065
105	0xbe0ed69b	-0.13949053
106	0xbd8fb641	-0.07017184
107	0x3b18ea99	0.002333319
108	0xbded5e1e	-0.11590217
109	0xbe238f04	-0.15972525
110	0x3e126fda	0.1430048
111	0xbea14b84	-0.31502926
112	0xbdf78098	-0.12085074
113	0x3af353d1	0.0018564408
114	0x3d1cd077	0.038284745
115	0xbe97a997	-0.29621574
116	0x3ced2528	0.028948382
117	0xbe2884c6	-0.16456899
118	0xbda2b707	-0.07945066
119	0xbe3ac125	-0.18237741
120	0xbc8a31c6	-0.016869437
121	0xbe35df5a	-0.17760983
122	0xbdeb6857	-0.114945106
123	0x3d56dbee	0.052455835
124	0xbdf84462	-0.12122418
125	0x3ddfb87b	0.10923859
126	0xbf18d563	-0.597006
127	0x3ea09068	0.31360173
128	0x3f8a1cbc	1.0790019
129	0x3ea02fe0	0.31286526
130	0x3f00399d	0.5008791
131	0x3f59b52a	0.8504206
132	0xbc8ed3d3	-0.01743499
133	0x3f25167c	0.64487433
134	0x3f21e75e	0.63243663
135	0xbd61fb05	-0.05517103
136	0xbebe85e3	-0.37211522
137	0xbf06b400	-0.5261841
138	0xbea69c82	-0.3254128
139	0xbe2a64a9	-0.16639961
140	0xbe212ef5	-0.15740569
141	0xbb9eb75f	-0.004843637
142	0x3d5924db	0.053013664
143	0x3c368b08	0.011141546
144	0x3c9a90c3	0.018867856
145	0x3d9310be	0.07180928
146	0xbdf7d42a	-0.12101014
147	0xbd966109	-0.07342727
148	0x3d1b0979	0.03785083
149	0xbda671a0	-0.08127141
150	0x393cf699	0.00018020942
151	0x3e109f28	0.14123213
152	0x3cbba988	0.022907987
153	0x3bf270f1	0.0073987176
154	0xbd733b18	-0.059382528
155	0xbde38aa7	-0.1111043
156	0xbd88664e	-0.06660138
157	0xbe2ebbc9	-0.17063822
158	0xbe0cbaf7	-0.13743196
159	0xbd806ffb	-0.062713586
160	0x3c71e100	0.014763117
161	0xbe229366	-0.1587654
162	0xbc76befd	-0.015060184
163	0xbd9a1091	-0.07522691
164	0xbe05a9c4	-0.13053042
165	0xbd91af10	-0.07113469
166	0xbd07ebea	-0.03318397
167	0xbda6851c	-0.08130857
168	0xbbc7dfa7	-0.0060996595
169	0xbda26c66	-0.079308316
170	0xbceda8b5	-0.02901111
171	0xbcd6f74f	-0.026240973
172	0xbcf53e64	-0.029936977
173	0xbc2661f4	-0.01015519
174	0xbd8bcf3c	-0.06826636
175	0xbe969e2b	-0.29417548
176	0xbcdefd79	-0.027220475
177	0xbe02a1c6	-0.12757024
178	0xbd8d9907	-0.06913953
179	0xbe058f5e	-0.13042971
180	0xbdcf7368	-0.10129434
181	0xbe4b2254	-0.19837314
182	0xbe977bcf	-0.29586646
183	0xbde61d3a	-0.11236043
184	0xbe1982d1	-0.14991309
185	0xbd98e8c0	-0.074662685
186	0xbd55ebd2	-0.05222685
187	0xbdf29a6c	-0.1184586
188	0xbe916eae	-0.28404754
189	0x3d9a6adb	0.07539912
190	0x3c7f75a4	0.015592013
191	0xbd84e0e2	-0.064882055
192	0x3d1eb39e	0.038745515
193	0x3bf4bcbe	0.007468789
194	0xba9012e4	-0.0010991958
195	0xbde7e00d	-0.11322031
196	0xbd2e7f5e	-0.042601936
197	0x3d06cc54	0.032909706
198	0xbe19d32e	-0.15021965
199	0xbe8a68c5	-0.27033058
200	0xbdb3f3aa	-0.087867096
201	0x3e356918	0.17715871
202	0xbdd4765d	-0.103741385
203	0xbe0e52aa	-0.13898721
204	0x3e1de29c	0.15418476
205	0xbe2117db	-0.15731756
206	0xbe2d16a6	-0.16903171
207	0xbdf99788	-0.121871054
208	0xbe08cb0f	-0.1335871
209	0xbe04beb2	-0.1296337
210	0xbe120f17	-0.14263569
211	0xbdc5a572	-0.09650697
212	0xbd44d973	-0.04805894
213	0xbb8ece4b	-0.004358088
214	0xbdd8b567	-0.10581475
215	0xbdef08f4	-0.116716295
216	0xbd0533a5	-0.032519955
217	0xbd8883a5	-0.06665734
218	0xbdcbd472	-0.0995263
219	0xbcf47e71	-0.029845448
220	0xbdc5b179	-0.09652991
221	0xbe2975ac	-0.16548795
222	0xbd792b53	-0.060832333
223	0xbc544425	-0.0129557
224	0xbe179d35	-0.14806063
225	0xbde54099	-0.11193962
226	0xbe532592	-0.206198
227	0xbeae638c	-0.34060323
228	0xbe9e10d6	-0.3087222
229	0xbe18a1ba	-0.14905444
230	0xbec4505c	-0.3834256
231	0xbde40e11	-0.111354955
232	0xbe1d785e	-0.15377948
233	0xbe17732e	-0.14790031
234	0xbd48c72f	-0.04901808
235	0xbd855f68	-0.06512338
236	0xbc818e3a	-0.01581489
237	0xbd299274	-0.041399434
238	0x3afc26be	0.001923762
239	0xbb69de9b	-0.0035685662
240	0xbd8ab0c1	-0.067719944
241	0xbc855f7e	-0.016280886
242	0xbc8f510e	-0.017494705
243	0xbe032ff2	-0.12811258
244	0xbdf671a4	-0.12033394
245	0xbc387694	-0.01125874
246	0xbc6a63ce	-0.014306022
247	0xbde66cf8	-0.11251253
248	0xbc1b792d	-0.00948934
249	0xbdc00112	-0.09375204
250	0xbdb454b2	-0.08805217
251	0x3d74c2a4	0.059755936
252	0x3a01f157	0.0004956922
253	0xbc4c009e	-0.012451319
254	0xbd8754c0	-0.06607962
255	0xbc78d42d	-0.015187305

conv2.bias f4 [32]
0	0xbe331c1e	-0.17491195
1	0xbea2176f	-0.31658503
2	0xbf122371	-0.5708533
3	0xbeca1dd2	-0.39475876
4	0xbdc5b655	-0.09653918
5	0xbe20cb3f	-0.15702532
6	0xbe6b80fb	-0.22998421
7	0xbea363f5	-0.319122
8	0xbdfb3f22	-0.12267901
9	0xbe0af794	-0.13571006
10	0xbe154416	-0.14576754
11	0xbe187fd2	-0.1489251
12	0xbe0d0008	-0.13769543
13	0xbda50b25	-0.08058766
14	0xbf526aaf	-0.82194036
15	0xbe12ddf0	-0.14342475
16	0xbe0f02f3	-0.13965969
17	0xbe074a35	-0.13211901
18	0xbe64c1be	-0.22339532
19	0xbe402d50	-0.18767285
20	0xbe217cdb	-0.15770285
21	0xbe833695	-0.2562758
22	0xbe06f380	-0.13178825
23	0xbe14b199	-0.14520873
24	0xbe1e5525	-0.15462168
25	0xbe4c609b	-0.19958727
26	0xbd320e33	-0.043470573
27	0xbd7e2780	-0.06204939
28	0xbdda5d45	-0.10662321
29	0xbe4a29a1	-0.19742443
30	0xbeb6a5db	-0.35673413
31	0xbe84fced	-0.25974217

fc1.weight f4 [128, 800]
0	0xbf3ec53c	-0.74519706
1	0xbf4fac08	-0.81121874
2	0xbe7ff314	-0.2499507
3	0x3e208b90	0.15678239
4	0xbe9b5fa7	-0.30346414
5	0xbf1765ee	-0.5913991
6	0xbf00e8f0	-0.50355434
7	0xbebc023e	-0.3672046
8	0xbe4f521a	-0.20246163
9	0xbf66a583	-0.900963
10	0xbe10d3f7	-0.14143358
11	0x3de43f95	0.1114494
12	0x3e2858cf	0.16440128
13	0xbe47157b	-0.19441788
14	0xbee60acd	-0.44930115
15	0xbeaf6b80	-0.34261703
16	0xbc99f5b7	-0.018793924
17	0x3e32ac47	0.17448531
18	0xbf176c1d	-0.5914934
19	0x3f0df9dc	0.5545938
20	0x3d9f4d48	0.07778412
21	0x3ee39fdc	0.444579
22	0xbe248f9a	-0.16070405
23	0xbe0a0914	-0.13480026
24	0xbe42b565	-0.19014509
25	0xbb148e00	-0.0022667646
26	0x3c6ef6d4	0.014585216
27	0xbd99238a	-0.07477482
28	0x3c36ee58	0.011165224
29	0xbd761487	-0.06007817
30	0xbed6ea7b	-0.4197577
31	0x3e96ab95	0.29427782
32	0xbea7c987	-0.3277094
33	0xbcd091f8	-0.025460228
34	0xbcca13f2	-0.024667714
35	0xbeb71c7e	-0.35763925
36	0xbe9887b7	-0.29791042
37	0x3efb3ea2	0.49071223
38	0xbcfdddb7	-0.030989511
39	0xbcf66222	-0.03007609
40	0xbe853bf8	-0.26022315
41	0xbd6d0d72	-0.05787415
42	0x3eb5c17c	0.3549918
43	0xbd62dcc8	-0.055386335
44	0x3e7af7d1	0.24508597
45	0xbe6b6ac0	-0.2298994
46	0x3e289044	0.16461283
47	0x3e61b0a9	0.22040047
48	0xbd10bd26	-0.035336636
49	0xbe6c6a2c	-0.23087376
50	0x3cc55916	0.024090331
51	0xbdc1489a	-0.09437676
52	0xbd8a6653	-0.06757798
53	0xbd11a362	-0.035556205
54	0xbcda5996	-0.026654046
55	0x3e6b1e36	0.22960743
56	0xbe007b75	-0.12547095
57	0xbdb7e10c	-0.08978471
58	0xbd031763	-0.032004725
59	0xbce6a1f0	-0.02815339
60	0x3d758ddd	0.059949744
61	0x3d51d236	0.051225863
62	0xbd0fdffe	-0.035125725
63	0x3caf5f26	0.021407675
64	0x3b726d40	0.0036991388
65	0xbd27b1a7	-0.040940907
66	0xbd5f4c73	-0.054516267
67	0xbde88549	-0.11353547
68	0xbd71023c	-0.05884002
69	0xbcf227ef	-0.029560057
70	0xbdc33115	-0.09530846
71	0xbed3712d	-0.41297284
72	0xbd01a0e2	-0.03164757
73	0xbd63e8e9	-0.055642042
74	0xbcd37760	-0.025813758
75	0xbc4f223a	-0.012642438
76	0x3e70b2b9	0.23505677
77	0xbcda16f0	-0.026622266
78	0x3cc4bfda	0.024017263
79	0xbc82aa63	-0.015950387
80	0x3cb516f4	0.022105671
81	0x3f0259b7	0.50918144
82	0xbeb2eedd	-0.34947863
83	0x3d16dd38	0.036832064
84	0xbdbc13e5	-0.09183482
85	0xbcee4bc4	-0.029088862
86	0x3c5736bc	0.013135608
87	0xbe67b81a	-0.22628823
88	0xbe94c629	-0.29057434
89	0xbd22de30	-0.039762676
90	0x3cfa17ea	0.030528981
91	0xbba75204	-0.0051062126
92	0xba7d0480	-0.00096518546
93	0x3b4bb0d0	0.003108073
94	0xbd144083	-0.036194336
95	0xbc09214e	-0.008369757
96	0xbe2134a5	-0.15742739
97	0xbceab4eb	-0.028650722
98	0x3c3250d0	0.010883525
99	0xbd5a3bd2	-0.053279705
100	0xbd94a40e	-0.072578534
101	0xbd6698da	-0.056298114
102	0xbd89d60c	-0.06730279
103	0xbcd3dd39	-0.025862323
104	0x3cea5f36	0.028609853
105	0xbdc0ed67	-0.09420281
106	0xbd8e0887	-0.0693522
107	0xbdb6d61f	-0.08927559
108	0xbd178ddb	-0.03700052
109	0xbdb59610	-0.08866513
110	0xbd6c6393	-0.05771215
111	0xbd0c4e58	-0.034254402
112	0xbda94b15	-0.08266274
113	0x3c8f3fae	0.01748642
114	0xbd0cbddf	-0.034360763
115	0xbd1a1a26	-0.037622593
116	0xbd278e4c	-0.04090719
117	0xbd014e6b	-0.031568926
118	0xbd07fec3	-0.033201944
119	0xbd9ac6cb	-0.07557448
120	0xbd9a17f9	-0.07524104
121	0xbbcf4940	-0.0063258708
122	0xbd5a9d69	-0.053372774
123	0x3cf1dd12	0.02952436
124	0xbdb2fd0d	-0.08739672
125	0xbce194e2	-0.027536813
126	0xbd0158c9	-0.031578813
127	0xbdbcd3dc	-0.092200965
128	0xbd6f6ca7	-0.05845323
129	0xbd4db1c3	-0.050218355
130	0xbd8df739	-0.069319196
131	0xbda11b12	-0.078664914
132	0xbda86ebc	-0.08224246
133	0xbdc02323	-0.09381702
134	0xbd0117ca	-0.031516828
135	0xbd5c2df8	-0.053754777
136	0xbdb6516e	-0.0890225
137	0xbd9fca56	-0.078022644
138	0xbdbaac84	-0.09114936
139	0x3c72e924	0.014826093
140	0xbd66d58c	-0.056355998
141	0xbd8a344e	-0.067482576
142	0xbce596c6	-0.028025996
143	0xbc92adcb	-0.017905137
144	0x3c091e1c	0.008368995
145	0xbd9fe4cc	-0.078073114
146	0xbd6183ab	-0.05505721
147	0xbd23bbbd	-0.039973963
148	0xbce56568	-0.028002456
149	0xbd9e62c1	-0.077336796
150	0xbee473f6	-0.4461972
151	0xbe61b715	-0.22042497
152	0xbdb647fd	-0.089004494
153	0x3bcbae58	0.0062158518
154	0xbda95da4	-0.08269814
155	0xbee1c82d	-0.44098035
156	0x3e7aad1e	0.24480101
157	0xbd3bc7b5	-0.045844752
158	0xbc20bf72	-0.009811269
159	0xbcd2d145	-0.025734553
160	0xbedc3215	-0.4300696
161	0xbdaaf345	-0.08347181
162	0xbd977dc7	-0.07397037
163	0xbd97489b	-0.07386895
164	0xbd0c9f1c	-0.034331426
165	0xbe8c6682	-0.27421957
166	0xbd80f9cf	-0.06297647
167	0xbce70d01	-0.028204443
168	0xbd239753	-0.039939236
169	0xbeb4349c	-0.35196388
170	0xbea2e212	-0.31813103
171	0xbeac89dc	-0.33698928
172	0x3ca3e2e0	0.020005643
173	0x3d720156	0.059083305
174	0xbec94bf6	-0.39315766
175	0xbe9da27d	-0.3078803
176	0xbe07eb34	-0.13273317
177	0xbd9585df	-0.073009245
178	0xbdbee5b1	-0.09321154
179	0xbdb7595c	-0.08952591
180	0x3c21bfb1	0.009872363
181	0xbd978b86	-0.07399659
182	0xbd879830	-0.06620824
183	0xbd5edbf4	-0.054408982
184	0xbda8072f	-0.08204495
185	0x3f1be463	0.60895365
186	0x3e75856d	0.23976679
187	0xbde79c43	-0.113091014
188	0xbd86e68c	-0.06586942
189	0xbd078739	-0.033087943
190	0xbec0e0c3	-0.3767148
191	0xbc783eb3	-0.015151667
192	0xbd8516b3	-0.0649847
193	0xbd82835e	-0.063727126
194	0xbdca859a	-0.09888764
195	0x3e8c5fbb	0.27416787
196	0xbd8734c2	-0.0660186
197	0xbdb709ee	-0.08937441
198	0xbd954026	-0.07287626
199	0xbda99240	-0.08279848
200	0xbdb9b538	-0.09067768
201	0xbd21b46c	-0.039478704
202	0xbd99fe57	-0.075192146
203	0xbd4f5ad1	-0.05062372
204	0xbd246278	-0.04013297
205	0xbd84285f	-0.06453013
206	0xbd013e86	-0.031553768
207	0xbd6e2792	-0.058143206
208	0xbda394fe	-0.079874024
209	0xbcfd5123	-0.030922478
210	0xbd8b9b25	-0.06816701
211	0xbd582d7f	-0.052777763
212	0xbd8ac70e	-0.06776248
213	0xbd9744a7	-0.07386141
214	0xbccf3ad7	-0.025296612
215	0xbd039032	-0.032119937
216	0xbd78a258	-0.060701698
217	0xbda0447b	-0.078255616
218	0xbd12bdf7	-0.035825696
219	0x3ce6f802	0.028194431
220	0xbd343752	-0.04399807
221	0xbd974d16	-0.0738775
222	0xbdb786b2	-0.08961238
223	0xbd901a81	-0.07036305
224	0xbc3b2f2a	-0.011424819
225	0xbd6442ee	-0.05572789
226	0xbd1b8129	-0.037964974
227	0xbd722d47	-0.05912521
228	0xbd784f53	-0.060622524
229	0xbcd598ea	-0.026073892
230	0xbd9cbf95	-0.07653729
231	0x3ea46e5c	0.32115448
232	0xbd913b7b	-0.07091423
233	0xbd9a27b2	-0.075271025
234	0xbd58a119	-0.05288801
235	0xbcfae93a	-0.03062879
236	0x3cdd5440	0.027017713
237	0xbd441e35	-0.04788037
238	0xbd34935c	-0.044085845
239	0xbd5655e7	-0.052328017
240	0x3cc8fa88	0.024533525
241	0xbd9adfce	-0.075622186
242	0xbd6a76ee	-0.057242326
243	0xbd180dac	-0.037122414
244	0xbd27696e	-0.04087203
245	0xbc2f6bee	-0.010706885
246	0xbd13dba8	-0.036098152
247	0xbd6d89bd	-0.057992686
248	0xbd3c3e9c	-0.045958146
249	0xbd6a8e5e	-0.05726468
250	0x3e85bff9	0.26123026
251	0xbe117446	-0.14204511
252	0xbdee4d26	-0.11635809
253	0xbdba30a7	-0.09091311
254	0xbca3937c	-0.019967787
255	0x3efe00ea	0.49610072

fc1.bias f4 [128]
0	0xbed3ffec	-0.4140619
1	0xbebd6bba	-0.3699625
2	0x3ed25235	0.41078344
3	0xbf0f0384	-0.5586474
4	0xbf1dc50c	-0.61628795
5	0xbee8c66b	-0.4546388
6	0xbefe3a51	-0.49653867
7	0xbf016c7a	-0.5055615
8	0xbcfbd839	-0.030742751
9	0xbe0ea4b5	-0.13930018
10	0xbe8b75d2	-0.27238327
11	0xbc268fae	-0.010166092
12	0xbd39c5e5	-0.045354743
13	0xbe6d59a1	-0.23178722
14	0xbe045b2e	-0.12925407
15	0xbdff6a35	-0.12471429
16	0xbe2f327c	-0.17109102
17	0xbece9df6	-0.4035489
18	0xbe3cf0f4	-0.18451291
19	0xbf32a22c	-0.69778705
20	0xbf436840	-0.7633095
21	0x3e9db75d	0.30803958
22	0xbe0282a1	-0.12745143
23	0xbed2d627	-0.4117901
24	0xbf361fd1	-0.711423
25	0xbf55f616	-0.8357862
26	0xbf30954d	-0.68977815
27	0xbf5c2ccd	-0.8600586
28	0x3f0cff39	0.5507694
29	0x3e132abb	0.14371769
30	0x3f3ebd6c	0.74507785
31	0xbe62d71b	-0.22152369
32	0xbf532b5d	-0.8248804
33	0x3ec482bb	0.3838099
34	0xbf501487	-0.8128132
35	0xbe1e28ab	-0.15445201
36	0xbf851c38	-1.0399237
37	0xbee0d031	-0.43908837
38	0xbee8f0a1	-0.45496085
39	0xbf0243f0	-0.50884914
40	0xbf0862b3	-0.53275603
41	0xbf056b5c	-0.5211694
42	0xbedea4d1	-0.4348512
43	0xbf32636d	-0.6968296
44	0xbde79263	-0.11307218
45	0xbf7ecbc1	-0.99529654
46	0xbf32a3e8	-0.6978135
47	0xbd93a0d0	-0.07208407
48	0xbfabffe0	-1.3437462
49	0xbe765343	-0.240552
50	0xbf27b201	-0.6550599
51	0x3fd12503	1.633942
52	0xbfb23571	-1.3922559
53	0xbf02261d	-0.50839406
54	0xbede8a6e	-0.43464988
55	0x3da2ab73	0.079428576
56	0xbf6075ae	-0.87679565
57	0xbe677fde	-0.22607371
58	0x3e9f9a2c	0.3117231
59	0x3ed58964	0.41706383
60	0xbedebe9b	-0.43504795
61	0xbf13a334	-0.57670903
62	0xbe718374	-0.23585302
63	0x3ed7cb1b	0.42147145
64	0x3f12ce1d	0.57345754
65	0x3ef93881	0.48675922
66	0xbef48848	-0.47760224
67	0xbf1746f7	-0.5909266
68	0xbef64ba9	-0.481046
69	0xbf15d990	-0.585351
70	0xbf51d855	-0.8197072
71	0xbf46fc8c	-0.77729106
72	0x3e59e708	0.21279538
73	0xbf581feb	-0.844237
74	0xbecd8e42	-0.40147597
75	0xbf0db3fb	-0.55352753
76	0xbf2c0a38	-0.6720309
77	0xbf1e3117	-0.61793655
78	0xbf2323e8	-0.63726664
79	0x3f111b24	0.5668204
80	0x3f5d1171	0.8635474
81	0xbf9b6194	-1.2139153
82	0xbeac9f4d	-0.33715287
83	0xbf1b8b85	-0.60759765
84	0xbf6b9234	-0.92019963
85	0xbf2ad14f	-0.6672563
86	0xbe25d23d	-0.16193481
87	0xbf1de00a	-0.6166998
88	0xbf217b6b	-0.63078946
89	0xbf017c59	-0.50580364
90	0xbe1f5690	-0.15560365
91	0xbe87bd76	-0.26511735
92	0xbf86595a	-1.0496018
93	0xbf777b06	-0.96672094
94	0xbe2cc93d	-0.16873641
95	0xbe064110	-0.13110757
96	0x3ee2084a	0.4414695
97	0xbeeb04c6	-0.4590208
98	0xbea0cf1e	-0.31408018
99	0xbf2bf847	-0.67175716
100	0x3d104f90	0.035232127
101	0xbf988ca1	-1.1917917
102	0xbe332958	-0.1749624
103	0xbee1561b	-0.44011006
104	0xbd706ce2	-0.05869759
105	0xbf83a140	-1.0283585
106	0xbf47da99	-0.7806793
107	0xbf1b1e89	-0.6059347
108	0xbf243afb	-0.641525
109	0xbf45cad3	-0.7726261
110	0xbf779dd6	-0.96725214
111	0xbee88d48	-0.4542029
112	0xbf206297	-0.62650436
113	0xbece6a73	-0.4031559
114	0x3e1d7686	0.15377244
115	0xbf9069e2	-1.1282313
116	0xbf0658ff	-0.5247955
117	0x3de068c2	0.10957481
118	0xbe89cb95	-0.26913133
119	0xbe917b43	-0.28414354
120	0xbe9097cf	-0.2824082
121	0xbe2f44ef	-0.1711614
122	0xbf5eba8d	-0.87003404
123	0xba85e44a	-0.001021513
124	0xbe9ae682	-0.30253989
125	0xbf31ca9e	-0.69449794
126	0xbf17628a	-0.59134734
127	0xbe7cf687	-0.24703418

fc2.weight f4 [10, 128]
0	0xbe9a0fbd	-0.30090132
1	0xbd853013	-0.0650331
2	0xc0115ce8	-2.2712955
3	0xbf3fa831	-0.74866015
4	0xbb4497c4	-0.0029997686
5	0x3caf9d37	0.02143727
6	0x3df7ca75	0.120991625
7	0x3cd2b549	0.02572121
8	0xbd088fe2	-0.033340342
9	0x3c1f9d32	0.009742068
10	0xbbbba10f	-0.005725987
11	0xbf2d1adb	-0.67619103
12	0x3b546d70	0.0032413863
13	0xbe018b19	-0.12650718
14	0xc0810089	-4.0313153
15	0xbd037f50	-0.032103837
16	0x3c876e08	0.01653196
17	0x3f087638	0.5330539
18	0xbb8e3a26	-0.004340428
19	0xbf352a21	-0.7076741
20	0x3db92d47	0.09041839
21	0xbf665aa0	-0.8998203
22	0xbc97dc32	-0.018537614
23	0x3a2c6b47	0.0006577265
24	0xbe0f4439	-0.13990869
25	0x3dcb04b5	0.09913007
26	0x3b6fbea6	0.0036582141
27	0xbdb57b5d	-0.0886142
28	0xbf87ea6a	-1.0618412
29	0xbf97fe91	-1.1874563
30	0xbfa0ce90	-1.2563038
31	0x3f0f6d6a	0.5602633
32	0xbf84240d	-1.0323502
33	0x3f0eb8e6	0.5575088
34	0xbdd65a43	-0.10466435
35	0x3c95f9d8	0.018307611
36	0x3da90c87	0.082543425
37	0xbd391362	-0.0451845
38	0x3d2a313f	0.04155087
39	0x3d051abe	0.032496206
40	0xbeb4c426	-0.353059
41	0xbdbccc2d	-0.09218631
42	0xbefb8867	-0.49127504
43	0xbe0cf4d5	-0.13765271
44	0xbd0541a6	-0.03253331
45	0xbe0eb8b7	-0.1393765
46	0x3f26d744	0.6517222
47	0xbfc5839c	-1.5430789
48	0xbf39eef9	-0.7263027
49	0x3d365ce2	0.044522174
50	0xbdc2a89e	-0.095048174
51	0xc024d4a6	-2.575479
52	0xbe27a042	-0.16369727
53	0xbb88ac15	-0.0041709044
54	0xbebd502e	-0.36975235
55	0xbecb9cab	-0.39767966
56	0xbb8b0760	-0.0042428225
57	0xbd38c428	-0.045108944
58	0x3ea951ef	0.33070323
59	0xbe0eb064	-0.13934475
60	0xbe2b0bd7	-0.16703735
61	0x3cc9f28e	0.024651792
62	0xbd654858	-0.055977196
63	0x3e942318	0.28933024
64	0xc00dbd65	-2.2146847
65	0xbf42357d	-0.75862867
66	0xbfe587cc	-1.7932067
67	0xbf3b0717	-0.73057693
68	0x3d08a763	0.033362757
69	0xbfdff821	-1.7497598
70	0xbf369982	-0.71327984
71	0xbe43959d	-0.19100042
72	0xbeddda28	-0.43330503
73	0xbfe3ecd4	-1.7806649
74	0xbd549417	-0.051899042
75	0xc00655c2	-2.0989842
76	0x3f5e9ce6	0.8695816
77	0xbdbe5bed	-0.09294877
78	0xbe77629a	-0.24158707
79	0x3f98df05	1.194306
80	0x3f8718f9	1.0554496
81	0xbf4bdd43	-0.79634494
82	0xbd8b7c8f	-0.06810867
83	0x3d78dd35	0.060757834
84	0xbeab7008	-0.3348391
85	0xbda6307b	-0.08114716
86	0x3cf1ee9a	0.02953272
87	0xbd870dc9	-0.06594426
88	0x3df6ae8e	0.120450124
89	0xbe6ff9a9	-0.23435082
90	0xbfc26451	-1.5186864
91	0xbc464704	-0.012101892
92	0x3e33a254	0.17542392
93	0xbdffdaa9	-0.12492878
94	0xbd0322bf	-0.03201556
95	0x3c323831	0.010877655
96	0x3e4eb698	0.20186841
97	0xbb873365	-0.0041259998
98	0xbcf448ac	-0.029819809
99	0xbde01782	-0.10941984
100	0xbf10ea08	-0.56607103
101	0xbed60ad0	-0.41805124
102	0x3cdab115	0.026695767
103	0x3f57d826	0.8431419
104	0xbf34954c	-0.7054031
105	0xbeb19763	-0.3468581
106	0x3ef8d740	0.48601723
107	0xbe8cf78c	-0.27532613
108	0xbe9df85a	-0.3085354
109	0xbd179994	-0.037011698
110	0xbea22bce	-0.31674045
111	0xbeaa78df	-0.33295342
112	0xbd661860	-0.05617559
113	0xbcb8a5ef	-0.02254006
114	0xbfbd7067	-1.4799927
115	0x3e508099	0.20361556
116	0xbd1333bb	-0.035938006
117	0xc005134e	-2.0793033
118	0xbcf84bd9	-0.030309604
119	0xbd3c5ff7	-0.045989957
120	0xbe73b717	-0.23800312
121	0xbe2de8a4	-0.16983277
122	0xbde4f0d0	-0.11178744
123	0x3d41f2f4	0.04735084
124	0xbb2a2907	-0.0025964396
125	0xbfa41151	-1.2817785
126	0xbfd0f145	-1.632363
127	0xbe30ee98	-0.17278516
128	0xbe2efdbc	-0.1708898
129	0x3dc9a7f6	0.09846489
130	0xbdfb7f43	-0.122801326
131	0xbdf553ab	-0.11978849
132	0xbe748c0e	-0.23881552
133	0x3c9ac1b0	0.018891186
134	0x3e6b0444	0.22950846
135	0xbe554888	-0.2082845
136	0xbeb57fc1	-0.3544903
137	0xbdfea6a6	-0.124341294
138	0xbdcde87c	-0.100541085
139	0xbe809b25	-0.25118366
140	0x3b6cd0e6	0.0036135255
141	0xbe0c9bff	-0.13731383
142	0xc0231d49	-2.5486624
143	0x3db04716	0.086073086
144	0xbee754b8	-0.45181823
145	0xc054ad3a	-3.323073
146	0xbf869953	-1.0515541
147	0xbf4879ee	-0.7831105
148	0xbbc885c4	-0.0061194617
149	0x3de714de	0.11283277
150	0xbdb51a4c	-0.08842906
151	0xbe32b203	-0.17450719
152	0xbf10482e	-0.5636014
153	0xbe89a3f9	-0.26882914
154	0x3dd95aee	0.106130466
155	0xbf33c68d	-0.7022484
156	0xc012a562	-2.2913442
157	0xbf9dff97	-1.2343625
158	0x3f2e9f14	0.68211484
159	0xbfbe6b8e	-1.4876573
160	0xbf5b2f6e	-0.85619247
161	0xc09c67b9	-4.8876615
162	0x3d855d7b	0.065119706
163	0x3e066c66	0.13127288
164	0x3e85c97f	0.26130292
165	0xbeec04a1	-0.46097282
166	0xbe51aa2a	-0.20475069
167	0xbcc23f8d	-0.023711944
168	0xbf84eccd	-1.0384766
169	0x3cfe4bfc	0.031042092
170	0xc040ea17	-3.0142877
171	0xbdaa85af	-0.08326279
172	0x3e397a5d	0.18113084
173	0xbe8a8e96	-0.2706191
174	0xbfef1966	-1.8679626
175	0xbf95f90c	-1.1716628
176	0x3bc315be	0.0059535196
177	0x3d21a7a2	0.039466508
178	0x3cab3ad6	0.020902079
179	0x3fb91d41	1.4462053
180	0xbe7dda44	-0.24790293
181	0x3d54bbae	0.051936798
182	0xbdeac75a	-0.114638045
183	0xbfaf4d77	-1.3695515
184	0x3e2dfd59	0.16991176
185	0xbd313436	-0.043262683
186	0xc0dfebd4	-6.9975376
187	0xc05d6159	-3.4590666
188	0xbf396725	-0.7242301
189	0xbd26f0c5	-0.04075696
190	0x3d79793b	0.06090663
191	0xc01c7bb4	-2.4450502
192	0xbf9e6b2e	-1.2376459
193	0xbfbe35e6	-1.4860198
194	0xbf45cdad	-0.7726696
195	0xbf88a9d0	-1.0676823
196	0x3c7320b7	0.014839343
197	0xbf9526ed	-1.1652504
198	0xbe482acf	-0.1954758
199	0xbf040171	-0.515647
200	0xc006ca98	-2.1061153
201	0xbf2cde7f	-0.67527
202	0xbefd272e	-0.49443954
203	0xc057e24d	-3.3731873
204	0xc037d1ce	-2.8721805
205	0xbe98a708	-0.29814935
206	0xbf38131c	-0.7190416
207	0xc0220c4a	-2.532
208	0xbd98b0f2	-0.07455625
209	0x3dffce78	0.12490553
210	0xbd00f07e	-0.03147935
211	0x3d69f4e5	0.057118315
212	0xbe110974	-0.14163762
213	0xbe83365b	-0.25627407
214	0x3d609a08	0.054834396
215	0x3d09921a	0.0335866
216	0xbeb43f90	-0.35204744
217	0xbf3967c4	-0.7242396
218	0xc006680d	-2.1001008
219	0x3dcbf20b	0.099582754
220	0x3e92333a	0.28554708
221	0xbe300789	-0.17190374
222	0xbd29e539	-0.04147837
223	0xbcab0ec7	-0.02088107
224	0xbfbc1926	-1.4695175
225	0x3c864b3b	0.016393295
226	0x3badb241	0.0053007905
227	0xbfb20e1d	-1.3910557
228	0xbf0e812e	-0.5566586
229	0xbf009582	-0.5022813
230	0xbc79dde7	-0.01525066
231	0xc03c4afd	-2.942077
232	0xbfc80409	-1.5626231
233	0xbd82457c	-0.06360909
234	0xc06a0ee3	-3.6571586
235	0xbe5157e2	-0.20443681
236	0xbed63cb6	-0.41843194
237	0x3dd5abd6	0.10433166
238	0xbf391251	-0.72293574
239	0x3b0830fa	0.0020781145
240	0xbd6d0b41	-0.05787206
241	0x3d1813ca	0.037128247
242	0xbf4a458c	-0.7901237
243	0xbef3694b	-0.4754127
244	0xbd48e2bd	-0.04904436
245	0xbe97ffe5	-0.2968742
246	0xbe3f9fed	-0.1871335
247	0xbc7e3a5a	-0.015516842
248	0xbd40317c	-0.046922192
249	0xbdfbc802	-0.12294008
250	0x3e27599e	0.1634278
251	0xbeb691f1	-0.3565822
252	0xbdef742b	-0.11692079
253	0xbf18a494	-0.59626126
254	0xbf5e16fc	-0.8675382
255	0xbdfab349	-0.12241227

fc2.bias f4 [10]
0	0xbe3e588c	-0.18588465
1	0x4004b075	2.07327
2	0xbf577a3c	-0.8417089
3	0xbda6a496	-0.08136861
4	0x3f0dbf94	0.5537045
5	0xbeec9c31	-0.46212915
6	0xbfd9425d	-1.6973377
7	0x3e5159e3	0.20444445
8	0xbea33259	-0.3187435
9	0x3e2228ed	0.15835924
